Ward/model.onnx (onnx, 52132 bytes, 9 tensors)

0.bias f4 [64]
0	0xbdef8f9a	-0.11697312
1	0xbe5e98b2	-0.21737936
2	0xbe903bbb	-0.2817057
3	0xbe09be65	-0.13451536
4	0xbe4be946	-0.19913206
5	0xbe2d81b4	-0.16944009
6	0x3edc0866	0.42975157
7	0xbf32f8df	-0.69911
8	0xbe68d3d4	-0.22737056
9	0x3ea06759	0.31328848
10	0x3ec1621a	0.37770158
11	0xbf10b70e	-0.5652932
12	0xbf4c7c08	-0.79876757
13	0xbf8a9db5	-1.0829378
14	0xbf22917a	-0.6350323
15	0xbe0757e7	-0.13217126
16	0xbee2354f	-0.44181296
17	0xbe8fe2d1	-0.28102735
18	0xbf7ad3ca	-0.97979414
19	0x3e44b3f8	0.19209278
20	0x3f088d17	0.53340286
21	0xbe02a6a2	-0.12758878
22	0xbfa9a65e	-1.3253896
23	0x3ea96343	0.33083543
24	0xbf9c73bf	-1.2222823
25	0xbf9af21d	-1.2105137
26	0xbf816094	-1.0107598
27	0xbdfd35c8	-0.123637736
28	0xbda0fbc0	-0.078605175
29	0xbf060e2d	-0.5236538
30	0xbf555d6d	-0.8334568
31	0xbf925b2e	-1.1434076
32	0x3f56401e	0.83691585
33	0x3ee91438	0.45523238
34	0x3f06fe06	0.5273136
35	0xbf9df507	-1.2340401
36	0xbe7b998b	-0.2457029
37	0xbdffae3e	-0.12484406
38	0xbe3505af	-0.1767795
39	0xbe9390ed	-0.28821507
40	0x3df4b1ab	0.1194795
41	0x3f2f5f52	0.6850482
42	0xbf53736d	-0.82598
43	0x3ef57222	0.4793864
44	0xbf44cf51	-0.7687884
45	0x3f322201	0.69583136
46	0xbed69630	-0.4191146
47	0x3e35a746	0.17739591
48	0xbe257258	-0.161569
49	0xbde1c28b	-0.11023434
50	0x3f492e79	0.78586537
51	0xbce8b90a	-0.028408546
52	0xbed7d6d6	-0.42156094
53	0xbf8fb941	-1.122841
54	0xbf144962	-0.57924473
55	0x3f3c99e2	0.73672307
56	0xbee987b0	-0.45611334
57	0x3d8e73b3	0.069556616
58	0xbed9103e	-0.42395204
59	0x3e9f7c96	0.3114974
60	0xbd9098ac	-0.0706037
61	0xbdd716f0	-0.10502422
62	0xbebbb294	-0.36659682
63	0xbfad2079	-1.3525535

2.bias f4 [64]
0	0xbd6dfbf4	-0.05810161
1	0xbdb6f757	-0.08933895
2	0xbf018479	-0.5059276
3	0x3dc98582	0.09839918
4	0xbf2bdd92	-0.67134964
5	0xbf1b03a8	-0.60552454
6	0x3debcf54	0.11514154
7	0x3c861ae4	0.016370244
8	0xbdb1b518	-0.08677119
9	0xbdf66ba9	-0.12032253
10	0xbd09ec9c	-0.033672914
11	0xbf5a3d48	-0.8524976
12	0xbf123f5f	-0.57127947
13	0xbf5fa314	-0.8735821
14	0xbe0f257e	-0.13979146
15	0xbf386f89	-0.7204519
16	0xbf161172	-0.5862037
17	0x3d1bad5e	0.038007133
18	0xbd619ed4	-0.05508311
19	0xbf1a3651	-0.6023913
20	0xbe11a71c	-0.14223903
21	0xbddc37a0	-0.10752797
22	0x3e9d75ff	0.30754086
23	0xbe0983fb	-0.13429253
24	0xbf2e0794	-0.67980313
25	0xbf2a68c6	-0.6656612
26	0xbd9657fc	-0.073410004
27	0xbf6702b1	-0.9023848
28	0x3d9f8647	0.07789283
29	0xbf032e14	-0.51242185
30	0xbf2ce397	-0.67534775
31	0xbd1cd113	-0.038285326
32	0xbf011b1e	-0.50432
33	0xbf2fd588	-0.686852
34	0xbeeb92db	-0.4601048
35	0xbd9a1c78	-0.07524961
36	0x3d70a14a	0.058747567
37	0x3de01a7c	0.109425515
38	0x3d5265e6	0.05136671
39	0x3edd8da7	0.43272135
40	0xbed71098	-0.42004848
41	0xbf0b8c03	-0.54510516
42	0xbf0765c0	-0.52889633
43	0x3e37287f	0.17886542
44	0xbf607920	-0.8768482
45	0xbdd577ab	-0.104232155
46	0xbf33efe7	-0.70287937
47	0xbf3f56be	-0.74741733
48	0x3d3c8704	0.0460272
49	0x3d038b83	0.03211547
50	0x3db448d0	0.088029504
51	0xbdc47c1e	-0.09593986
52	0xbd8eab05	-0.06966213
53	0x3d8e16a8	0.06937915
54	0xbe07f7c0	-0.13278103
55	0xbdd63524	-0.104593545
56	0xbef2c5e6	-0.4741661
57	0xbf2aa85d	-0.6666315
58	0xbca922fa	-0.020646561
59	0x3ecd61db	0.4011372
60	0xbed779f6	-0.42085236
61	0xbf2fdeae	-0.6869916
62	0x3f12de37	0.5737032
63	0xbf2df786	-0.67955816

30 f4 [4, 64]
0	0x3d46fe50	0.048582375
1	0x3df51290	0.11966431
2	0xbeb3020d	-0.34962502
3	0xbd107d3b	-0.03527568
4	0x3c223221	0.009899647
5	0xbe290cdc	-0.16508812
6	0xbe740e8c	-0.23833674
7	0x3bf9afa0	0.007619813
8	0xbeedcbfe	-0.46444696
9	0xbe5dd84b	-0.2166454
10	0xbe23c698	-0.15993726
11	0x3dbd1bc0	0.092338085
12	0xbc7fa058	-0.015602194
13	0x3e1952b2	0.14972952
14	0xbcf0404b	-0.029327532
15	0xbebe0839	-0.37115648
16	0x3d12cbbe	0.035838835
17	0xbf0aee9e	-0.5427035
18	0x3d023cd6	0.0317963
19	0x3e4a944d	0.19783135
20	0x3bb2f00f	0.005460746
21	0xbd53d80e	-0.051719718
22	0x3dd1931f	0.10233139
23	0xbeb03261	-0.34413436
24	0x3e6a07b3	0.228545
25	0x3e1f9b86	0.15586671
26	0x3e923b03	0.28560647
27	0xbe43bd38	-0.1911515
28	0xbd468fc0	-0.048476934
29	0x3dacaba3	0.084311746
30	0x3da71b70	0.0815953
31	0x3bce6f4b	0.0062998882
32	0x3c233dff	0.0099635115
33	0xbee4bf24	-0.4467708
34	0xbc8d5660	-0.0172531
35	0x3de8e2fb	0.11371418
36	0x3d378543	0.044804823
37	0x3d005250	0.0313285
38	0xbeaddf13	-0.33959255
39	0xbedb788e	-0.42865413
40	0xbe5456fe	-0.2073631
41	0xbd014ce7	-0.03156748
42	0x3c8693bf	0.016427873
43	0xbe089acf	-0.13340305
44	0x3cc77fc3	0.024352914
45	0xbe04b82b	-0.1296088
46	0x3e15acb4	0.14616662
47	0xbe61e13f	-0.22058581
48	0xbe5ba120	-0.21448183
49	0xbb253d3c	-0.00252135
50	0x3d0ec50e	0.034855895
51	0xbe861c17	-0.26193306
52	0xbe7bf6b0	-0.24605823
53	0x3e3053e4	0.17219502
54	0x3c1f6281	0.009728075
55	0xbc10c303	-0.008835557
56	0xbda27f40	-0.07934427
57	0xbe085e87	-0.1331731
58	0xbb5b3700	-0.003344953
59	0xbea79c3a	-0.3273638
60	0xbe1b1bc8	-0.15147316
61	0xbe065de0	-0.13121748
62	0x3da0e07b	0.07855316
63	0x3d7bf12f	0.061509307
64	0xbed0cf7b	-0.40783295
65	0xbf06b987	-0.5262684
66	0xbe4e742e	-0.20161507
67	0x3d99bb1a	0.0750639
68	0xbd8a328a	-0.06747921
69	0xbed0bc40	-0.40768623
70	0x3effabb5	0.4993569
71	0x3e13be8f	0.14428161
72	0x3e6d7c78	0.23192012
73	0xbdb59cc1	-0.08867789
74	0xbe24b382	-0.16084102
75	0xbf59c97c	-0.85073066
76	0x3f081f58	0.53172827
77	0x3d9726d3	0.07380452
78	0x3f2cf4f3	0.6756126
79	0xbdfe4679	-0.12415785
80	0x3efc9879	0.49335077
81	0xbe495b60	-0.19663763
82	0xbc883b7e	-0.01662993
83	0xbf13ed14	-0.5778363
84	0xbe170bf7	-0.14750658
85	0xbe95e593	-0.29276714
86	0xbe761abf	-0.2403364
87	0xbef904ae	-0.48636383
88	0x3ef838eb	0.48480925
89	0xbe9714ea	-0.29508144
90	0x3d73f8c5	0.059563417
91	0xbd5755d0	-0.05257207
92	0xbda616c8	-0.08109814
93	0xbe0b5401	-0.13606264
94	0xbed1ba6b	-0.40962538
95	0x3deffa4d	0.11717663
96	0xbf0da011	-0.55322367
97	0xbde715e8	-0.11283475
98	0x3ec94771	0.39312318
99	0x3d9465db	0.0724599
100	0xbee73495	-0.45157304
101	0xbf1c34fb	-0.6101834
102	0x3d30603f	0.043060537
103	0xbd8bae55	-0.068203606
104	0x3ed9435b	0.424342
105	0x3e41a7ca	0.18911663
106	0x3f05a8cd	0.52210695
107	0x3ed44911	0.41461995
108	0xbe6254a4	-0.221026
109	0x3e71f8dd	0.2363009
110	0x3e83addd	0.25718585
111	0x3eed3621	0.4633036
112	0xbe5cfbcc	-0.21580428
113	0x3e028492	0.12745884
114	0xbefb9a30	-0.49141073
115	0x3cc91676	0.024546843
116	0xbe664a08	-0.22489178
117	0x3ea4fdd3	0.32224903
118	0x3eb82b94	0.35970747
119	0x3e530a7f	0.20609473
120	0xbd6f0a90	-0.058359683
121	0xbe982f1f	-0.2972345
122	0xbeb7b30a	-0.35878783
123	0xbc13a4ef	-0.009011491
124	0xbedd83cb	-0.43264613
125	0xbe9f6634	-0.31132662
126	0xbe9e1c17	-0.30880806
127	0xbd04ec1e	-0.03245174
128	0x3e94272c	0.28936136
129	0x3edee659	0.43535116
130	0x3ebe9786	0.37224978
131	0xbf06bfee	-0.5263661
132	0x3ecbc1dc	0.3979634
133	0x3e7dc134	0.24780732
134	0xbdff7985	-0.1247435
135	0x3d88c91a	0.06678982
136	0xbefaef0a	-0.49010497
137	0x3e0c1799	0.13680877
138	0x3ea4f8dc	0.32221115
139	0xbe57e67d	-0.21084018
140	0xbecb8195	-0.397473
141	0xbe0d2bf4	-0.13786298
142	0x3dd463c3	0.103705905
143	0xbe7a6c20	-0.24455309
144	0xbe9dad3b	-0.30796227
145	0xb8a49016	-7.8469675e-05
146	0x3efe414a	0.49659187
147	0x3dde3305	0.10849575
148	0x3e6caf8f	0.23113845
149	0xbdd9fb2c	-0.1064361
150	0xbe9e2223	-0.3088542
151	0x3ed20fcb	0.41027674
152	0x3e5646f7	0.20925508
153	0x3eebe222	0.46070963
154	0xbf154fe0	-0.58325005
155	0xbcbb0e60	-0.022834003
156	0xbe2b3930	-0.16721034
157	0x3e54a668	0.20766604
158	0xbf3d04c8	-0.7383542
159	0x3e58a4af	0.21156572
160	0xbd81751d	-0.06321166
161	0xbe72ee70	-0.23723769
162	0x3e88e34f	0.26735923
163	0xbecfb516	-0.40567845
164	0x3d9651e3	0.073398374
165	0x3e250932	0.16116789
166	0xbeeb3552	-0.45939118
167	0xbecb740a	-0.39736968
168	0x3ee27615	0.44230714
169	0xbef7214c	-0.4826759
170	0x3ec26283	0.37965783
171	0x3e4b9c94	0.19883949
172	0x3cd7243b	0.026262393
173	0x3ec97adc	0.39351547
174	0xbf228b7b	-0.6349408
175	0xbed53c13	-0.41647395
176	0xbdf94e00	-0.121730804
177	0xbe280205	-0.1640702
178	0x3e1a78cc	0.15085143
179	0x3d91b502	0.071146026
180	0x3b8f0a00	0.0043652058
181	0x3e2070d3	0.15668039
182	0x3ebfea74	0.3748356
183	0x3ede19c9	0.43379048
184	0xbe323820	-0.17404222
185	0x3c8a6f4e	0.016898777
186	0x3d750580	0.0598197
187	0x3ca436a3	0.020045584
188	0x3ecede90	0.40404177
189	0xbb854180	-0.004066646
190	0xbe815eeb	-0.2526773
191	0xbe21b36a	-0.15791097
192	0xbef323ed	-0.47488347
193	0xbf4d0630	-0.80087566
194	0x3dbced8f	0.09224998
195	0xbd7a21b1	-0.061067287
196	0xbf82891d	-1.0198094
197	0xbeb54e28	-0.3541119
198	0x3ea0fe5b	0.31444058
199	0x3eeac986	0.45856875
200	0xbdca4d18	-0.09877986
201	0xbd5de587	-0.054173972
202	0xbede4a3b	-0.43416008
203	0xbdd257c9	-0.1027065
204	0x3eef6171	0.4675403
205	0x3e0f18f1	0.13974358
206	0x3ecf5340	0.40493202
207	0x3dc071ec	0.09396729
208	0x3e55afd1	0.2086785
209	0x3e174da1	0.14775707
210	0x3e245834	0.16049272
211	0xbf2d6117	-0.6772627
212	0x3e9e1f78	0.30883384
213	0x3e8a9fb9	0.27074984
214	0x3e932248	0.28737092
215	0xbb30f1ba	-0.002699955
216	0x3ef9da99	0.4879959
217	0x3eb212e2	0.3478003
218	0x3f003a77	0.5008921
219	0xbdf1e448	-0.11811119
220	0xbd24b730	-0.040213764
221	0x3eb7727d	0.35829535
222	0xbeb36989	-0.35041454
223	0x3ea5b84b	0.32367167
224	0x3eb226d7	0.34795257
225	0xbecb111a	-0.39661485
226	0xbe28f512	-0.16499737
227	0xbe3072d2	-0.172313
228	0xbb99c1aa	-0.004692276
229	0x3e403053	0.18768434
230	0x3c9b9c8e	0.01899555
231	0x3d5010aa	0.050797142
232	0x3d0386ca	0.032110967
233	0x3f108e19	0.56466824
234	0xbd7c7214	-0.06163223
235	0x3e36ab05	0.17838676
236	0xbe4dcb7c	-0.20097154
237	0x3f1a8f2d	0.6037472
238	0x3e8bbfbc	0.2729472
239	0xbf0bfbc1	-0.5468102
240	0xbca99ee0	-0.02070564
241	0xbb40f152	-0.0029440713
242	0x3e238c82	0.15971568
243	0xbc1e6c40	-0.0096693635
244	0xbe6b4e70	-0.2297914
245	0x3ed4c263	0.41554555
246	0xbf3b223d	-0.7309912
247	0xbe4af78b	-0.19820993
248	0xbe6c4a74	-0.23075277
249	0x3eb38b28	0.35067105
250	0x3ce5ae40	0.02803719
251	0xbd3c682d	-0.045997787
252	0x3ecac9de	0.39607137
253	0xbcd09960	-0.02546376
254	0xbf2611f0	-0.6487112
255	0xbe5aafeb	-0.2135617

31 f4 [64, 64]
0	0xbdca2f2c	-0.098722786
1	0xbccf4ea4	-0.025306053
2	0xbd9f1f16	-0.07769601
3	0x3e2e0128	0.16992629
4	0x3bd65326	0.006540674
5	0xbd32efa4	-0.04368557
6	0x3ccbb1e8	0.024865106
7	0xbd362ef6	-0.04447838
8	0x3de09d16	0.10967462
9	0x3d341314	0.043963507
10	0xbcb4a178	-0.02204965
11	0x3dc266b5	0.09492246
12	0x3d5b7ea5	0.053587575
13	0x3d506ab7	0.05088302
14	0xbd21b3a7	-0.03947797
15	0xbdbcc3da	-0.09217043
16	0xbd0fc6da	-0.03510175
17	0x3d040d04	0.032238975
18	0x3db33746	0.08750777
19	0x3cdd11cb	0.026986023
20	0xbd667ed8	-0.05627331
21	0xbbff878e	-0.007798142
22	0xbd022305	-0.03177168
23	0xbd8fb021	-0.07016016
24	0xbd01bed4	-0.03167613
25	0x3d0fc04a	0.03509549
26	0x3d9755e6	0.07389431
27	0xbd6bf7e5	-0.057609458
28	0xbde09184	-0.10965255
29	0xbde413a6	-0.1113656
30	0xbde447b0	-0.11146486
31	0x3d3233a6	0.043506287
32	0xbd793402	-0.060840614
33	0xbd857447	-0.06516319
34	0xbd8e01a8	-0.0693391
35	0xbdec34fd	-0.11533544
36	0xbdbd288c	-0.09236249
37	0x3de43e6f	0.11144721
38	0xbd3e43bc	-0.046451315
39	0x3e645b0d	0.22300358
40	0xbdd1adc6	-0.10238223
41	0xbbc69f64	-0.0060614813
42	0x3bbbc50c	0.005730277
43	0xbdba6576	-0.091013834
44	0xbe159ac4	-0.1460982
45	0x3a8e8d00	0.0010875762
46	0x3c3c7d79	0.011504524
47	0xbd918b99	-0.07106704
48	0xbd2b49b4	-0.041818336
49	0x3d5dcfcb	0.054153245
50	0xbd516f3c	-0.051131472
51	0xbd0c8140	-0.03430295
52	0xbe0bb482	-0.13643077
53	0x3c0b2944	0.008493725
54	0x3ce22155	0.027603785
55	0xbdd26d75	-0.102747835
56	0xbde12db3	-0.109950446
57	0xbd9dd4b9	-0.07706589
58	0xbe04bf58	-0.12963617
59	0xbd8257f0	-0.06364429
60	0xbd8d61fa	-0.06903453
61	0xbd378156	-0.04480108
62	0x3e23ab0a	0.15983215
63	0xbe2f5b6f	-0.17124723
64	0x3bd28840	0.0064249337
65	0xbde23bfa	-0.11046596
66	0xbe2daf4d	-0.16961403
67	0x3dd1e596	0.10248868
68	0xbe413473	-0.18867664
69	0xbdefaa0d	-0.117023565
70	0xbd16bcc4	-0.036801115
71	0x3dd91593	0.10599818
72	0x3e0d05a8	0.13771689
73	0x3d239a74	0.03994222
74	0xbc44d01c	-0.012012508
75	0xbe0ce0f6	-0.13757691
76	0x3cc35ac7	0.023846997
77	0xbd45769f	-0.04820883
78	0x3cd89f7a	0.026443232
79	0xbbc895ae	-0.006121359
80	0xbe159951	-0.14609267
81	0xbd330fb0	-0.043716133
82	0x3aeabb80	0.0017908663
83	0xbdea45a3	-0.114390634
84	0x3dd56690	0.10419953
85	0xbd891ed9	-0.06695337
86	0x3e2fed45	0.17180355
87	0xbdba1895	-0.0908672
88	0xbe20616e	-0.15662166
89	0xbe4354cc	-0.19075316
90	0x3dfa92f4	0.1223506
91	0x3bb29cd3	0.005450824
92	0xbc7bd200	-0.015369892
93	0xbe0fbd74	-0.14037114
94	0xbcf67650	-0.030085713
95	0x3cda5204	0.026650436
96	0xbd662a93	-0.056192946
97	0xbda049a3	-0.07826545
98	0xbe04f79d	-0.12985082
99	0x3c88eaf9	0.016713606
100	0x3d5f5a79	0.05452964
101	0x3e23d580	0.15999413
102	0x3c75e4f4	0.0150082
103	0x3e309b9f	0.17246865
104	0xbe222c45	-0.158372
105	0xbe63b9a0	-0.22238779
106	0xbc6041a3	-0.013687524
107	0x3d80608f	0.06268417
108	0x3d0d4d2c	0.034497425
109	0x3d5ac030	0.05340594
110	0xbd767efe	-0.060179703
111	0xbbeece43	-0.007287772
112	0x3c56e340	0.013115704
113	0x3dba21cd	0.09088478
114	0xbd7789d8	-0.060434192
115	0x3d7c53e0	0.061603427
116	0x3dd189f4	0.102313906
117	0x3e5f6740	0.2181673
118	0xbd0e8e40	-0.03480363
119	0x3d5bbc41	0.05364633
120	0xbdbca056	-0.09210269
121	0xbe36fe9a	-0.1787056
122	0x3df68aa4	0.12038162
123	0x3d3adb34	0.045619205
124	0x3b9e62a8	0.004833538
125	0xbbb65f07	-0.0055655274
126	0x3d70b961	0.05877054
127	0x3c63fc1a	0.013915086
128	0xbd3a13e0	-0.04542911
129	0xbd1a58ac	-0.03768222
130	0x3d49149c	0.04909192
131	0x3c1fd178	0.009754531
132	0xbd22b26d	-0.03972094
133	0x3de929ec	0.11384949
134	0x3cc22faf	0.023704378
135	0x3cdf39c0	0.027249217
136	0x3d45fdbe	0.04833769
137	0x3d7293b8	0.059222907
138	0xbdd0b7a8	-0.1019128
139	0x3d8173f7	0.06320947
140	0x3dd43138	0.1036095
141	0xbcafbd47	-0.02145256
142	0xbdbbfb45	-0.09178785
143	0x3d92bb77	0.07164662
144	0x3d95b729	0.07310326
145	0x3d0a408a	0.033752955
146	0xbdd7cd18	-0.105371654
147	0xbdd6f96a	-0.10496791
148	0x3daab8e4	0.08336046
149	0x3d344b7e	0.044017307
150	0x3d5e375c	0.054252014
151	0x3cc7097f	0.02429652
152	0x3d9ba361	0.075995214
153	0xbe029b30	-0.12754512
154	0x3de80470	0.113289714
155	0xbd697e8f	-0.05700546
156	0xbddcc138	-0.10779041
157	0x3ce2cfcc	0.027686976
158	0x3d93e8fc	0.072221726
159	0xbe1356c3	-0.14388566
160	0xbd14efe5	-0.036361594
161	0x3d3ab334	0.045581058
162	0xbdda3fe0	-0.106567144
163	0x3dbacaa4	0.09120682
164	0xbd9319e9	-0.07182676
165	0x3dc06954	0.0939509
166	0x3ddf8940	0.1091485
167	0x3d158a83	0.03650905
168	0xbd057e46	-0.032591127
169	0x3db58cb0	0.08864725
170	0x3d059278	0.032610387
171	0x3db129d5	0.08650557
172	0xbbb73050	-0.005590476
173	0x3dd90f0d	0.10598574
174	0xbcc6c0bf	-0.02426183
175	0x3c4563f6	0.012047758
176	0xbd8abe42	-0.0677457
177	0x3dbd87c6	0.09254412
178	0x3dce83de	0.100837454
179	0xbdef55bc	-0.116862744
180	0xbd6610e6	-0.05616846
181	0x3c326b58	0.010889851
182	0xbd5921e3	-0.053010833
183	0xbd59be13	-0.053159785
184	0x3d9dd790	0.07707131
185	0x3c901bdd	0.017591411
186	0x3bbbcc24	0.0057311226
187	0xbd089b20	-0.033351064
188	0x3c8e1884	0.017345674
189	0x3ca765a9	0.020434218
190	0x3dbda665	0.09260253
191	0xbc0d4cfd	-0.0086243125
192	0xbdaeba6a	-0.085316494
193	0x3d7be4aa	0.061497368
194	0xbe097c57	-0.13426338
195	0xbdacf251	-0.08444656
196	0xbdbf4428	-0.09339172
197	0x3ca81207	0.020516409
198	0xbc98c138	-0.018646821
199	0xbd303cdf	-0.0430268
200	0x3bd02bb9	0.0063528684
201	0xbdaf9859	-0.0857398
202	0xbdb623b2	-0.08893527
203	0x3db6a203	0.0891762
204	0xbe31f9a9	-0.17380394
205	0xbdaaed07	-0.08345991
206	0x3d28a7a1	0.04117549
207	0xbd24aaf2	-0.04020209
208	0xbdef79b9	-0.11693139
209	0x3d9e0400	0.07715607
210	0xbda88118	-0.08227748
211	0xbe126da1	-0.14299633
212	0xbe082222	-0.1329427
213	0xbe047f3c	-0.12939161
214	0x3d3dc424	0.046329632
215	0x3da0eb4a	0.07857378
216	0x3c4233e2	0.01185319
217	0xbd517174	-0.051133588
218	0x3d738528	0.05945316
219	0x3db37945	0.08763365
220	0xbb98d68e	-0.004664249
221	0xbdcebc3d	-0.10094497
222	0xbdf2788a	-0.11839397
223	0xbdfc6125	-0.12323216
224	0x3d92816f	0.07153594
225	0x3c770e1f	0.01507905
226	0xbda299c5	-0.079394855
227	0x3dc4cc17	0.096092395
228	0xbd4ebed4	-0.050474957
229	0xbe21c2f9	-0.15797032
230	0xbdc838ef	-0.09776484
231	0xbd674f65	-0.0564722
232	0xbdbcab74	-0.092123896
233	0xbda5c5d9	-0.08094377
234	0xbd47f309	-0.04881576
235	0xbc85e4ad	-0.016344393
236	0xbd80d3fc	-0.06290433
237	0x3d8f6e6a	0.07003482
238	0x3df21cf0	0.11821926
239	0x3b9c626a	0.004772474
240	0x3d75adc0	0.059980154
241	0xbe0584ab	-0.1303889
242	0xbda815dc	-0.08207294
243	0xbde65b64	-0.112479
244	0x3da66f26	0.08126669
245	0xbdf92b91	-0.12166513
246	0x3c951c18	0.018201873
247	0xbd78fb10	-0.060786307
248	0xbdf37fb8	-0.11889595
249	0x3d97a876	0.07405178
250	0xbcc6dffc	-0.024276726
251	0xbd050e90	-0.03248459
252	0xbd8c2516	-0.06843011
253	0x3d98a852	0.074539796
254	0x3d211cd8	0.03933415
255	0xbd787cf2	-0.060666032

32 f4 [64, 64]
0	0xbd9bd13c	-0.07608268
1	0x3d259f14	0.04043491
2	0xbda83794	-0.08213726
3	0xbd987c48	-0.0744558
4	0xbdcd02d8	-0.10010308
5	0x3d9c6674	0.07636729
6	0x3d77ac40	0.060467005
7	0xbd97e04c	-0.07415828
8	0x3dabb554	0.08384195
9	0xbda3bf68	-0.07995492
10	0xbdf6558c	-0.120280355
11	0x3dc80a08	0.09767538
12	0xbc076300	-0.0082633495
13	0xbd867302	-0.06564905
14	0x3d0dc330	0.034609973
15	0xbd3294b4	-0.043598846
16	0x3ceccc60	0.028906047
17	0x3d808bcc	0.06276664
18	0xbd8b99dc	-0.06816456
19	0xbd48759c	-0.048940286
20	0x3da2609e	0.079285845
21	0xbd0dcf84	-0.03462173
22	0xbd5c08ec	-0.053719446
23	0x3d51c938	0.051217288
24	0x3ded893a	0.115984395
25	0x3ca20130	0.019775957
26	0xbd63ba40	-0.055597544
27	0x3dc7e2ec	0.09760079
28	0xbbd082a0	-0.006363228
29	0x3d88af8c	0.06674108
30	0xb9032000	-0.00012505054
31	0x3de97fb8	0.114013135
32	0xbdc00c7e	-0.09377383
33	0x3c900a68	0.017583087
34	0x3dba0f34	0.09084931
35	0xbde86cfa	-0.11348911
36	0x3da13742	0.07871868
37	0x3c244af0	0.010027632
38	0x3dafa126	0.085756585
39	0xbd5931cc	-0.053026006
40	0xbd1687ec	-0.03675072
41	0x3d56da04	0.05245401
42	0xbdbadace	-0.09123765
43	0xbd8efba0	-0.069815874
44	0xbd93e8a6	-0.072221085
45	0xbdc30c80	-0.095238686
46	0x3cc3b6f0	0.023890942
47	0x3deae5ce	0.11469613
48	0xbd243e28	-0.04009834
49	0xbdc472aa	-0.09592183
50	0x3cfe2458	0.03102319
51	0xbcbc2fa0	-0.022971928
52	0x3de20b52	0.110373154
53	0xbc634e30	-0.013873622
54	0xbd92010e	-0.071291074
55	0x3da548d0	0.080705285
56	0x3c59fd60	0.013305038
57	0x3dcbaeec	0.09945473
58	0xbc3d2310	-0.011544004
59	0xbdc36832	-0.09541358
60	0x3ca438c0	0.020046592
61	0x3d311870	0.043236196
62	0x3c880ff0	0.016609162
63	0xbc1db240	-0.009625018
64	0x3deab0d0	0.114595056
65	0x3da863f0	0.082221866
66	0xbd09932a	-0.033587612
67	0x3d4d4819	0.050117586
68	0xba8a4e80	-0.0010551959
69	0xbdf4801c	-0.119384974
70	0xbccad280	-0.024758577
71	0x3dc936eb	0.09824928
72	0xbbd82f60	-0.0065974444
73	0x3d877227	0.0661357
74	0x3d66faa5	0.056391377
75	0xbcb8ac48	-0.022543088
76	0x3b317e00	0.0027083158
77	0x3daae88f	0.08345138
78	0xbdd83e18	-0.105587184
79	0x3d86a520	0.06574464
80	0x3bcdfc90	0.0062862113
81	0x3d66a75c	0.05631195
82	0x3ded47fa	0.11585994
83	0x3d2d75f9	0.042348836
84	0x3d9f239a	0.07770462
85	0x3d35e317	0.044406023
86	0xbce1aa92	-0.027547155
87	0xbc772110	-0.015083566
88	0x3d7cffec	0.061767504
89	0x3d821df2	0.06353368
90	0x3d8691b8	0.065707624
91	0x3cda6e10	0.02666381
92	0x3d1f7314	0.038928106
93	0x3d9f4472	0.07776727
94	0x3ab29f3c	0.0013627778
95	0x3d8da766	0.06916694
96	0xbc31077b	-0.010805006
97	0xbdb59cf4	-0.08867827
98	0xbd333df3	-0.04376025
99	0x3c9c8237	0.01910506
100	0xbd2ab418	-0.041675657
101	0x3d857852	0.0651709
102	0xbe016a64	-0.12638241
103	0xbdbc0c35	-0.09182016
104	0xbd2d8610	-0.04236418
105	0xbdac3768	-0.084090054
106	0xbda86e24	-0.08224133
107	0xbd26db9e	-0.040736787
108	0xbdc4fbd6	-0.096183464
109	0x3d0a7750	0.03380519
110	0x3d4583e4	0.048221484
111	0xbd67daa6	-0.056605004
112	0xbdb6d6a0	-0.08927655
113	0x3d703b3e	0.058650248
114	0x3d89a6a7	0.067212395
115	0xbcd093d2	-0.025461111
116	0xbd996ef9	-0.074918695
117	0xbdce57b5	-0.100753225
118	0xbda9f657	-0.08298939
119	0x3d772210	0.06033522
120	0x3d73ea94	0.059549883
121	0xbc738eb0	-0.014865562
122	0xbb21db40	-0.0024697334
123	0xbcf8bc50	-0.030363232
124	0xbbf978a0	-0.0076132566
125	0xbd388c41	-0.04505563
126	0x3dadf2de	0.08493589
127	0x3d2a6f98	0.04161033
128	0xbd3d3f83	-0.046203148
129	0x3d869000	0.065704346
130	0x3e12c3d1	0.1433251
131	0x3e1f41fd	0.15552516
132	0xbdb166ae	-0.08662163
133	0xbe082fca	-0.1329948
134	0xbe0b6481	-0.13612558
135	0xbd4309b4	-0.047616675
136	0xbbf0012f	-0.00732436
137	0x3db06d7d	0.08614633
138	0x3e3e58f4	0.1858862
139	0x3e06b71f	0.13155793
140	0xbddcf283	-0.10788443
141	0x3cd0b57d	0.025477165
142	0xbbb307bf	-0.00546357
143	0xbde6121a	-0.11233921
144	0x3e076c45	0.13224895
145	0x3c96b5a1	0.018397154
146	0x3d82e82e	0.06391941
147	0xbcc48a26	-0.023991656
148	0x3ddb5f7a	0.1071157
149	0x3d57f55c	0.052724227
150	0x3e316916	0.17325243
151	0xbb2890d4	-0.002572109
152	0x3ce631b9	0.028099881
153	0xbd73b7e2	-0.059501536
154	0xbddc43dd	-0.107551314
155	0x3d0cccff	0.034375187
156	0xbd22370c	-0.039603278
157	0x3c3bcfd6	0.011463126
158	0x3df81989	0.121142454
159	0xbd13a575	-0.036046464
160	0x3e3ce0ff	0.18445204
161	0xbd70d1c4	-0.058793798
162	0x3d269344	0.040667787
163	0xbd83b208	-0.06430441
164	0xbccef434	-0.02526293
165	0x3e0912dd	0.13386102
166	0x3d765135	0.06013604
167	0x3ce5b0fb	0.028038492
168	0xbda71c9d	-0.081597544
169	0x3d6f7cf9	0.058468793
170	0x3d5e99ed	0.054346014
171	0x3deea9b7	0.11653464
172	0xbdd28b4b	-0.10280474
173	0x3d7707c8	0.060310155
174	0x3d84f669	0.064923115
175	0xbdde6e63	-0.10860898
176	0xbcdad0b5	-0.026710847
177	0x3cb054ce	0.021524813
178	0x3e3d6877	0.18496881
179	0x3b7ac3ec	0.0038263751
180	0x3e38292f	0.1798446
181	0x3dce3660	0.10068965
182	0x3e00d3b4	0.12580758
183	0xbcef2a2e	-0.029194918
184	0xbd871925	-0.06596593
185	0xbcfdf668	-0.031001285
186	0xbe0ce089	-0.13757528
187	0x3def1322	0.11673571
188	0xbd77a942	-0.06046415
189	0xbd881163	-0.06643941
190	0x3c91314e	0.017723706
191	0xbe31c420	-0.17359972
192	0xbe35754c	-0.17720526
193	0x3da3d730	0.08000028
194	0x3dfb3aaf	0.122670524
195	0xbd13075e	-0.035895698
196	0xbd005d40	-0.03133893
197	0xbced6828	-0.02898033
198	0x3dfe0188	0.12402636
199	0x3d9e0bc8	0.07717091
200	0xbd72eaa8	-0.059305817
201	0xbdeeb853	-0.11656251
202	0x3d0a2756	0.03372892
203	0xbe2de42e	-0.16981575
204	0x3d61cffb	0.055129986
205	0xbd2169ef	-0.039407667
206	0x3dc5536a	0.096350506
207	0x3d0a77a4	0.033805504
208	0xbe0a8ab3	-0.13529472
209	0xbe1801a3	-0.14844374
210	0x3cd89c02	0.026441578
211	0x3df3f0ec	0.119111866
212	0xbd966fbf	-0.073455326
213	0xbda9ad64	-0.08285025
214	0xbcc32143	-0.023819571
215	0x3d8f67de	0.07002233
216	0x3d0d32bf	0.034472223
217	0x3d9347d9	0.07191438
218	0xbdcf104a	-0.10110529
219	0x3b4b6140	0.0031033307
220	0xbcc411f3	-0.02393434
221	0x3e1da37d	0.15394397
222	0xbc3f8715	-0.011689921
223	0xbdf4eded	-0.11959443
224	0xbdc99f58	-0.098448455
225	0xbbfa5fb5	-0.0076408037
226	0xbdb3216e	-0.087466106
227	0xbe36c231	-0.17847516
228	0xbdcd54f2	-0.10025968
229	0xbe1ec5f0	-0.15505195
230	0xbe49a639	-0.19692315
231	0xbd437cb9	-0.047726367
232	0x3d6395d9	0.055562828
233	0xbd94ee58	-0.07272023
234	0xbde488ff	-0.111589424
235	0x3c963404	0.01833535
236	0xbd0dcf77	-0.034621682
237	0xbdd2194c	-0.10258731
238	0xbe16d3fe	-0.14729306
239	0x3cf5df34	0.030013658
240	0xbe01dfd7	-0.12683044
241	0x3d064c8c	0.032787845
242	0xbdace535	-0.08442155
243	0xbcba0722	-0.02270848
244	0xbe1cbc40	-0.15306187
245	0xbcc306eb	-0.02380701
246	0x3b5bb789	0.0033526144
247	0x3ce9e8bd	0.028553361
248	0xbe2ee490	-0.17079377
249	0x3c19878e	0.009370698
250	0xbdeceae7	-0.115682416
251	0xbc4ea904	-0.012613539
252	0xbdeb2e89	-0.11483485
253	0xbddb4480	-0.10706425
254	0x3d90facd	0.070790865
255	0x3d4cb3dc	0.049976215

33 f4 [64, 64]
0	0x3ce6ac1f	0.028158246
1	0x3db04b86	0.08608155
2	0x3b433b88	0.0029790122
3	0xbde34c7d	-0.11098573
4	0x3dee96b4	0.11649838
5	0x3de377bc	0.11106822
6	0xbd455dee	-0.04818528
7	0x3d865678	0.06559461
8	0x3c36c7ae	0.011156006
9	0x3d9be487	0.076119475
10	0xbd2d2b32	-0.042277522
11	0x3e5eb705	0.21749504
12	0x3cd0bfb8	0.025482044
13	0x3e205a96	0.15659556
14	0xbdbfb9c9	-0.093616076
15	0x3d8e9d25	0.06963567
16	0xbe9d9e1f	-0.307847
17	0xbe9939c7	-0.29926893
18	0x3daae66a	0.08344729
19	0x3dc7a10b	0.097475134
20	0x3cb4cd8c	0.022070669
21	0x3d8aae40	0.06771517
22	0x3e20ed59	0.15715541
23	0x3cf20de1	0.029547634
24	0x3d5d548c	0.05403571
25	0xbdf7baca	-0.12096174
26	0x3d335b8f	0.04378849
27	0xbe1730e2	-0.14764741
28	0xbcf09117	-0.02936606
29	0x3dcea652	0.10090317
30	0xbd9a6356	-0.07538478
31	0x3d6ec94c	0.05829744
32	0xbe853fae	-0.26025146
33	0x3e10b80f	0.14132713
34	0x3e05fe8a	0.1308538
35	0xbd6ae9f1	-0.05735201
36	0x3c846f2c	0.016166292
37	0x3da26518	0.07929438
38	0xbcabbb8b	-0.02096345
39	0x3db55f52	0.088560715
40	0x3e1b7a74	0.15183431
41	0xbde524c6	-0.111886546
42	0xbd31dbaa	-0.04342238
43	0x3e621c40	0.22081089
44	0xbd8dc920	-0.06923127
45	0xbdbcc05f	-0.092163794
46	0xbd1662ff	-0.036715504
47	0x3dd230c1	0.10263205
48	0x3dcf2e13	0.1011621
49	0x3dcda3bd	0.10040996
50	0xbdd5c0d3	-0.10437169
51	0x3cdc098c	0.026860021
52	0x3ddf2085	0.108948745
53	0xbcb96217	-0.02262978
54	0xbde4c39a	-0.111701205
55	0xbdb3693e	-0.08760308
56	0x3e310919	0.17288627
57	0xbe51135d	-0.20417543
58	0x3c8f5340	0.017495751
59	0x3dba7f4d	0.09106312
60	0xbda044ef	-0.07825648
61	0xbdb8c9b0	-0.09022844
62	0xbe1a538f	-0.15070938
63	0x3cc40aef	0.023930995
64	0x3d1974f0	0.037465036
65	0x3d7a605c	0.06112705
66	0xbc557430	-0.01302819
67	0x3de6cc10	0.112693906
68	0xbd12fa48	-0.035883218
69	0xbd11e44c	-0.03561811
70	0xbdea5b66	-0.11443214
71	0xbcc76510	-0.024340183
72	0x3dcf9e16	0.101375744
73	0xbdfd8dce	-0.12380563
74	0x3db1a0a4	0.08673218
75	0x3d921644	0.07133153
76	0x3de1350a	0.109964445
77	0x3dbd359a	0.09238739
78	0x3deba88a	0.11506756
79	0xbddde704	-0.10835078
80	0x3d4a78d4	0.049431637
81	0xbd9734a6	-0.07383089
82	0x3d15f9b0	0.036615074
83	0x3d383d6c	0.04498045
84	0xbd8b6f6e	-0.06808363
85	0xbdc3b958	-0.09556836
86	0x3b069a80	0.0020538867
87	0xbdd54944	-0.10414365
88	0x3cb160d0	0.02165261
89	0x3de283d6	0.11060302
90	0x3da06bbc	0.07833049
91	0x3dd90afa	0.10597797
92	0xbd8a6e72	-0.06759347
93	0xbdb5da16	-0.08879487
94	0xbd8e8aa6	-0.06960039
95	0xbdb53d46	-0.088495776
96	0xbd965718	-0.073408306
97	0xbd768f1c	-0.060195073
98	0x3d9c507a	0.07632537
99	0xbd8d9882	-0.06913854
100	0xbd7237a8	-0.05913511
101	0x3c43ed40	0.01195842
102	0xbda30158	-0.07959241
103	0x3bd10300	0.0063785315
104	0xbdf64cd0	-0.120263696
105	0xbdbfb350	-0.09360373
106	0xbcc515a8	-0.024058178
107	0x3c5f3490	0.013623372
108	0xbd789f84	-0.060699
109	0xbdb7a618	-0.08967227
110	0xbdc85a04	-0.09782794
111	0xbde0627e	-0.10956286
112	0xbc237330	-0.009976193
113	0xbdf91dcc	-0.121638864
114	0x3d6525ec	0.05594437
115	0x3da17aca	0.07884748
116	0x3d303fd4	0.04302962
117	0xbdd698d4	-0.104783684
118	0x3cd31240	0.025765538
119	0x3d250204	0.040285125
120	0x3cc4df20	0.024032176
121	0x3da8210a	0.08209427
122	0x3d10888c	0.03528647
123	0xbde01b76	-0.10942738
124	0x3de58e7e	0.11208819
125	0xbd32b8e4	-0.043633357
126	0xbdf2488c	-0.118302435
127	0x3da084e0	0.07837844
128	0xbb5ea9af	-0.003397565
129	0x3de11876	0.10990994
130	0x3bcfb8c9	0.006339167
131	0xbcd2ac8d	-0.025717044
132	0x3d01af08	0.031661063
133	0xbd0a0b0e	-0.03370195
134	0xbdc6de74	-0.09710398
135	0x3e2cb818	0.16867101
136	0x3dd16e69	0.10226137
137	0x3d76da98	0.06026706
138	0xbde4421a	-0.1114542
139	0x39d73090	0.00041044177
140	0x3db91b80	0.09038448
141	0x3e0dd171	0.13849427
142	0x3c6f43c5	0.01460356
143	0xbe2f33b5	-0.17109568
144	0x3c7ae461	0.015313239
145	0x3ce81124	0.028328486
146	0x3c14fc69	0.009093382
147	0xbe072f29	-0.13201584
148	0x3aba961d	0.0014235411
149	0xbce5e150	-0.028061539
150	0x3d90ec17	0.070762806
151	0x3c451266	0.012028312
152	0x3d367a81	0.044550423
153	0xbdb2e673	-0.08735361
154	0x3d7d8e70	0.061903417
155	0xbd883ec4	-0.066525966
156	0xbdbc109c	-0.091828555
157	0x3df0dfa6	0.117614076
158	0xbda2c81b	-0.07948323
159	0xbc82e91b	-0.015980294
160	0xbcccd6d4	-0.025004782
161	0x3e50a873	0.20376758
162	0x3e02ba21	0.12766315
163	0xbe144b4f	-0.14481853
164	0x3e095848	0.13412583
165	0xbda855fa	-0.08219524
166	0xbdef12c4	-0.11673501
167	0xbd067c50	-0.032833397
168	0x3e1b2df9	0.15154256
169	0x3da19a6f	0.07890784
170	0xbe3e173e	-0.18563554
171	0x3d370848	0.044685632
172	0x3d517860	0.05114019
173	0x3d86fba7	0.065909676
174	0x3c18e638	0.009332232
175	0x3db99f9e	0.09063648
176	0x3dde9202	0.108676925
177	0x3e24f711	0.16109873
178	0x3addd419	0.0016924172
179	0xbdd7977a	-0.10526939
180	0x3e205d2d	0.15660544
181	0x3d835606	0.06412892
182	0x3d319c44	0.043361917
183	0x3ccc9918	0.024975345
184	0x3cb81a76	0.022473555
185	0xbd0152c5	-0.031573076
186	0xbd9210e2	-0.071321264
187	0xbcff0aad	-0.03113302
188	0xbd654765	-0.05597629
189	0x3a3cbd5c	0.00071998476
190	0xbe1d0b58	-0.15336359
191	0x3d827f90	0.06371987
192	0x3e3d0d4b	0.18462102
193	0x3d9d06d2	0.076673165
194	0xbdcaa8c7	-0.09895473
195	0x3d8975c1	0.06711913
196	0xbd9ea679	-0.07746596
197	0x3c1a4e98	0.009418152
198	0xbe49ecef	-0.19719289
199	0x3e3cf34d	0.18452187
200	0x3e441f0d	0.1915247
201	0x3cff8b77	0.031194432
202	0x3d99ecfc	0.07515904
203	0x3d831b62	0.06401707
204	0x3dee6018	0.11639422
205	0x3de1a697	0.110181026
206	0xbd642509	-0.055699382
207	0xbe26caf2	-0.16288355
208	0x3b4d549d	0.003133095
209	0xbe4c56a4	-0.19954926
210	0x3e4203b8	0.18946731
211	0x3cca5634	0.024699308
212	0x3de391f3	0.11111822
213	0x3e1792bd	0.1480207
214	0x3e47912e	0.19488975
215	0x3e3b7c95	0.18309243
216	0xbb6669d5	-0.0035158296
217	0xbd30c61a	-0.043157674
218	0x3ce303b3	0.027711725
219	0xbba9fe17	-0.0051877606
220	0x3d521904	0.051293388
221	0x3dbf433c	0.09338996
222	0xbdd7165d	-0.10502312
223	0xbd89467d	-0.06702898
224	0xbdc6e6f0	-0.097120166
225	0x3db28703	0.08717158
226	0x3e246a86	0.1605626
227	0x3de2c7ad	0.110732414
228	0x3e419c80	0.18907356
229	0xbdf3f267	-0.11911469
230	0xbd1d5cca	-0.03841857
231	0x3db6e54c	0.08930454
232	0x3d7f60aa	0.062348045
233	0x3daed5f4	0.08536902
234	0xbe14799d	-0.14499517
235	0x3d6a27e2	0.05716694
236	0xbdfa2272	-0.12213601
237	0xbdcd91fb	-0.10037609
238	0x3de41b7d	0.111380555
239	0x3b5b7957	0.0033489072
240	0x3e45dfce	0.19323656
241	0x3daab90e	0.08336078
242	0xbd6e8db8	-0.058240622
243	0x3db0ff26	0.08642416
244	0x3cddf6a4	0.027095146
245	0xbdf5eab3	-0.12007656
246	0xbde9abf4	-0.114097506
247	0x3c90c461	0.017671766
248	0x3c31de4e	0.010856224
249	0xbeb19a5f	-0.34688088
250	0x3df82ec0	0.12118292
251	0x3dd3706f	0.103241794
252	0xbdaf6b89	-0.085654326
253	0xbdce4246	-0.100712344
254	0xbd76c678	-0.06024787
255	0xbd8bd294	-0.06827274

34 f4 [64, 1]
0	0x3e0dd018	0.13848913
1	0x3d7e34a0	0.062061906
2	0x3baeae37	0.0053308266
3	0x3edd8123	0.43262586
4	0xbd19fe62	-0.037596114
5	0xbcb6e2a5	-0.02232487
6	0x3b745885	0.0037284207
7	0x3de2f1e0	0.1108129
8	0x3dfa1baf	0.122123115
9	0x3ca8dfa2	0.020614449
10	0x3e705bd0	0.23472524
11	0x3e29f679	0.16597928
12	0x3d76f900	0.06029606
13	0x3e2adce6	0.16685829
14	0xbecc39d8	-0.3988788
15	0x3d0b91d6	0.034074627
16	0xbeaf7373	-0.34267768
17	0xbec2b987	-0.3803217
18	0x3e560598	0.20900571
19	0xbc26b0c0	-0.010173976
20	0x3e4e5e6a	0.20153204
21	0x3e38e982	0.18057826
22	0x3e4afc4a	0.19822803
23	0x3de6c2b6	0.11267607
24	0x3e1e2205	0.15442665
25	0x3c39bd11	0.011336581
26	0x3d6a37bc	0.05718206
27	0x3cde4ad4	0.02713529
28	0xbe86af18	-0.2630546
29	0xbdcdd46c	-0.10050282
30	0xbdbb7581	-0.091532715
31	0x3d60b87b	0.054863434
32	0xbed0ec38	-0.4080522
33	0x3e5d0504	0.21583945
34	0x3e6375fc	0.22212976
35	0xbe89a3eb	-0.26882872
36	0x3e579d47	0.2105609
37	0x3d1d743f	0.03844094
38	0xbd1e2208	-0.038606673
39	0x3d618b02	0.05506421
40	0x3e1e39f6	0.15451798
41	0xbb1ae60d	-0.0023635656
42	0xbc198c9a	-0.009371901
43	0x3e1dbd8b	0.15404336
44	0x3ca5beda	0.020232607
45	0xbcdb5d05	-0.026777754
46	0xbc9db587	-0.019251598
47	0x3dedee09	0.11617667
48	0x3e6426ca	0.22280422
49	0x3de58899	0.112076946
50	0xbd2583df	-0.040408965
51	0x3d16d8fa	0.03682802
52	0x3da12b05	0.078695334
53	0xbd2a84cc	-0.04163055
54	0xbc72ea95	-0.0148264365
55	0xba4116f6	-0.0007365787
56	0x3e5d8b0c	0.21635073
57	0xbeb71ac6	-0.35762614
58	0x3d86e62a	0.06586869
59	0x3e095515	0.13411362
60	0xbd28d1b7	-0.041215625
61	0xbd153d6f	-0.03643554
62	0xbd0b3aa9	-0.03399149
63	0xbe9fb1bd	-0.3119029

4.bias f4 [64]
0	0xbf0705c7	-0.5274319
1	0xbc999e80	-0.018752337
2	0xbf1b2c7d	-0.6061476
3	0xbf058f06	-0.5217136
4	0x3e90bc46	0.2826864
5	0xbd4e5ac6	-0.050379537
6	0x3eb35fc4	0.35034
7	0xbf82bf59	-1.0214645
8	0x3d96d1d7	0.073642425
9	0xbf086135	-0.53273326
10	0xbecb55db	-0.3971394
11	0xbeb64026	-0.35595816
12	0xbd27bcef	-0.040951665
13	0xbf049ab3	-0.5179855
14	0x3d033e77	0.032041993
15	0xbc526c7f	-0.01284325
16	0xbeae6da5	-0.34068027
17	0xbec02949	-0.37531498
18	0xbeb970de	-0.36218923
19	0xbf7d65ab	-0.9898326
20	0xbee000ea	-0.43750697
21	0xbef1127d	-0.47084418
22	0xbeb2dd33	-0.34934387
23	0xbdb7a621	-0.089672334
24	0xbf0f4396	-0.559625
25	0xbd866273	-0.065617464
26	0xbf2ce60e	-0.67538536
27	0xbd3c0f16	-0.045912825
28	0xbebd1f7b	-0.3693808
29	0xbd8a48a2	-0.06752135
30	0xbf1a1bff	-0.6019897
31	0x3ddbd5a4	0.10734108
32	0xbf058069	-0.52149063
33	0xbecc484a	-0.39898902
34	0xbed1aade	-0.40950674
35	0xbf026b96	-0.50945413
36	0xbd51f987	-0.05126336
37	0xbec27b4c	-0.37984693
38	0xbee5f4a6	-0.44913214
39	0xbea2f8cd	-0.31830445
40	0xbf104f86	-0.56371343
41	0xbc3305c6	-0.010926669
42	0x3c695df3	0.014243591
43	0xbeba73cc	-0.3641647
44	0x3f11c609	0.569428
45	0x3efcdae3	0.49385747
46	0xbedfea08	-0.4373324
47	0xbf21ca7f	-0.6319961
48	0xbebfdd4e	-0.3747353
49	0xbf040441	-0.5156899
50	0xbed3ba8a	-0.41353256
51	0xbeff89cd	-0.4990982
52	0xbed24a5a	-0.4107235
53	0xbf38d3a6	-0.7219795
54	0xbf063bc0	-0.5243492
55	0xbf1aff63	-0.6054594
56	0x3d04486a	0.032295622
57	0x3dbdc18b	0.09265431
58	0xbd71a482	-0.058994778
59	0x3e2fb760	0.17159796
60	0x3e57f849	0.21090807
61	0xbec674fc	-0.38761127
62	0xbee24a2c	-0.44197214
63	0xbd449f43	-0.048003446

6.bias f4 [64]
0	0xbe89663a	-0.26835805
1	0xbdeb0824	-0.11476162
2	0x3d1d628b	0.038424056
3	0x3e2feadb	0.17179434
4	0xbb6b2f37	-0.0035886297
5	0xbcbc6373	-0.02299664
6	0xbf1c9b16	-0.6117414
7	0xbeaa3e70	-0.3325076
8	0xbe90053f	-0.28129002
9	0x3dd894b9	0.105752416
10	0x3e8b9687	0.2726328
11	0xbed4da48	-0.41572785
12	0x3c9eb508	0.019373432
13	0xbea47d46	-0.32126826
14	0xbd77e2c6	-0.060519002
15	0x3d83c3e5	0.06433848
16	0xbd02270d	-0.031775523
17	0xbdd1a9b2	-0.10237445
18	0xbe8eda0b	-0.2790073
19	0xbe092ede	-0.13396785
20	0xbed7acfb	-0.4212416
21	0xbee76d1c	-0.4520043
22	0xbe9efe8d	-0.31053582
23	0xbef05232	-0.4693771
24	0xbeacf83c	-0.33783138
25	0xbd5d6695	-0.054052908
26	0xbdbee884	-0.093216926
27	0x3ba4b4bc	0.005026428
28	0x3e01e613	0.12685423
29	0xbda1d71a	-0.079023555
30	0x3cd29b42	0.025708798
31	0xbf0b6a0a	-0.5445868
32	0x3dfed9f5	0.12443916
33	0xbef23bb6	-0.4731118
34	0xbe9fa684	-0.3118173
35	0x3d299dbe	0.0414102
36	0xbe9c93e3	-0.3058158
37	0xbd6b715d	-0.05748116
38	0xbc107af9	-0.0088183815
39	0xbd2f3aa4	-0.042780533
40	0xbeb32b50	-0.34993982
41	0xbe07a05a	-0.13244763
42	0xbe1e4ef7	-0.1545981
43	0xbea49bbf	-0.32150075
44	0xbe023534	-0.12715608
45	0xbcb6b7dd	-0.02230447
46	0x3d6ea0e3	0.058258902
47	0xbe914d45	-0.28379264
48	0xbea654e6	-0.32486647
49	0xbec2250b	-0.37918887
50	0xbe067ab0	-0.13132739
51	0xbd6716f9	-0.056418393
52	0xbedde6d6	-0.43340176
53	0xbd6b35be	-0.0574243
54	0xbcc2559c	-0.023722462
55	0xbb6e3043	-0.0036344684
56	0xbee72139	-0.45142534
57	0x3e141d33	0.14464264
58	0xbdbee470	-0.09320915
59	0xbed55203	-0.41664132
60	0xbc8ddfd0	-0.017318636
61	0x3d9f542d	0.07779727
62	0xbacb80e2	-0.0015526081
63	0xbb85bc97	-0.0040813196
